…
ures:\n------------\n- **Efficient Design**: ReLU-k activation replaces expensive B-splines\n- **Dual-Branch Architecture**: Combines dense transformation with basis functions\n- **Model Variants**: Pre-configured architectures for different use cases\n- **Regularization Support**: Built-in dropout and batch normalization\n- **Full Keras Compatibility**: Complete Model class with compile/fit workflow\n- **Serialization Ready**: Proper save/load functionality with .keras format\n- **Production Ready**: Comprehensive error handling and validation\n\nModel Variants:\n--------------\n- **micro**: [32, 16] - Minimal model for simple tasks (1.1K params)\n- **tiny**: [64, 32] - Small model for basic classification (4.2K params)\n- **small**: [128, 64, 32] - Medium model for standard datasets (16.9K params)\n- **base**: [256, 128, 64] - Standard model for most applications (65.8K params)\n- **large**: [512, 256, 128] - Large model for complex tasks (262.7K params)\n- **xlarge**: [1024, 512, 256, 128] - Extra large for demanding applications (1.3M params)\n\nPerformance Characteristics:\n---------------------------\nCompared to equivalent KAN networks:\n- Training Time: ~40x faster\n- FLOPs: ~10x reduction\n- Memory Usage: ~5x lower\n- Accuracy: Equal or superior on most benchmarks\n\nUsage Examples:\n--------------\n```python\n# CIFAR-10 classification\nmodel = PowerMLP.from_variant(\"small\", 
…
